rank_zero_deprecation(
/home/daniel/miniconda3/lib/python3.9/site-packages/pytorch_lightning/core/datams` was deprecated in v1.5 and will be removed in v1.7.
  rank_zero_deprecation(
ResNet(
  (conv1): Conv2d(3, 64, kernel_size=(7, 7), stride=(2, 2), padding=(3, 3), bias
  (bn1): BatchNorm2d(64, eps=1e-05, momentum=0.1, affine=True, track_running_sta
  (relu): ReLU(inplace=True)
  (maxpool): MaxPool2d(kernel_size=3, stride=2, padding=1, dilation=1, ceil_mode
  (layer1): Sequential(
    (0): BasicBlock_cond(
      (conv1): Conv2d(64, 64, kernel_size=(3, 3), stride=(1, 1), padding=(1, 1),
      (bn1): BatchNorm2d(64, eps=1e-05, momentum=0.1, affine=True, track_running
      (relu): ReLU(inplace=True)
      (router): route_func(
        (avgpool): AdaptiveAvgPool2d(output_size=1)
        (fc): Linear(in_features=64, out_features=4, bias=True)
        (sigmoid): Sigmoid()
      )
      (conv2): CondConv2d()
      (bn2): BatchNorm2d(64, eps=1e-05, momentum=0.1, affine=True, track_running
    )
    (1): BasicBlock_cond(
      (conv1): Conv2d(64, 64, kernel_size=(3, 3), stride=(1, 1), padding=(1, 1),
      (bn1): BatchNorm2d(64, eps=1e-05, momentum=0.1, affine=True, track_running
      (relu): ReLU(inplace=True)
      (router): route_func(
        (avgpool): AdaptiveAvgPool2d(output_size=1)
        (fc): Linear(in_features=64, out_features=4, bias=True)
        (sigmoid): Sigmoid()
      )
      (conv2): CondConv2d()
      (bn2): BatchNorm2d(64, eps=1e-05, momentum=0.1, affine=True, track_running
    )
  )
  (layer2): Sequential(
    (0): BasicBlock_cond(
      (conv1): Conv2d(64, 128, kernel_size=(3, 3), stride=(2, 2), padding=(1, 1)
      (bn1): BatchNorm2d(128, eps=1e-05, momentum=0.1, affine=True, track_runnin
      (relu): ReLU(inplace=True)
      (router): route_func(
        (avgpool): AdaptiveAvgPool2d(output_size=1)
        (fc): Linear(in_features=128, out_features=4, bias=True)
        (sigmoid): Sigmoid()
      )
      (conv2): CondConv2d()
      (bn2): BatchNorm2d(128, eps=1e-05, momentum=0.1, affine=True, track_runnin
      (downsample): Sequential(
        (0): Conv2d(64, 128, kernel_size=(1, 1), stride=(2, 2), bias=False)
        (1): BatchNorm2d(128, eps=1e-05, momentum=0.1, affine=True, track_runnin
      )
    )
    (1): BasicBlock_cond(
      (conv1): Conv2d(128, 128, kernel_size=(3, 3), stride=(1, 1), padding=(1, 1
      (bn1): BatchNorm2d(128, eps=1e-05, momentum=0.1, affine=True, track_runnin
      (relu): ReLU(inplace=True)
      (router): route_func(
        (avgpool): AdaptiveAvgPool2d(output_size=1)
        (fc): Linear(in_features=128, out_features=4, bias=True)
        (sigmoid): Sigmoid()
      )
      (conv2): CondConv2d()
      (bn2): BatchNorm2d(128, eps=1e-05, momentum=0.1, affine=True, track_runnin
    )
  )
  (layer3): Sequential(
    (0): BasicBlock_cond(
      (conv1): Conv2d(128, 256, kernel_size=(3, 3), stride=(2, 2), padding=(1, 1
      (bn1): BatchNorm2d(256, eps=1e-05, momentum=0.1, affine=True, track_runnin
      (relu): ReLU(inplace=True)
      (router): route_func(
        (avgpool): AdaptiveAvgPool2d(output_size=1)
        (fc): Linear(in_features=256, out_features=4, bias=True)
        (sigmoid): Sigmoid()
      )
      (conv2): CondConv2d()
      (bn2): BatchNorm2d(256, eps=1e-05, momentum=0.1, affine=True, track_runnin
      (downsample): Sequential(
        (0): Conv2d(128, 256, kernel_size=(1, 1), stride=(2, 2), bias=False)
        (1): BatchNorm2d(256, eps=1e-05, momentum=0.1, affine=True, track_runnin
      )
    )
    (1): BasicBlock_cond(
      (conv1): Conv2d(256, 256, kernel_size=(3, 3), stride=(1, 1), padding=(1, 1
      (bn1): BatchNorm2d(256, eps=1e-05, momentum=0.1, affine=True, track_runnin
      (relu): ReLU(inplace=True)
      (router): route_func(
        (avgpool): AdaptiveAvgPool2d(output_size=1)
        (fc): Linear(in_features=256, out_features=4, bias=True)
        (sigmoid): Sigmoid()
      )
      (conv2): CondConv2d()
      (bn2): BatchNorm2d(256, eps=1e-05, momentum=0.1, affine=True, track_runnin
    )
  )
  (layer4): Sequential(
    (0): BasicBlock_cond(
      (conv1): Conv2d(256, 512, kernel_size=(3, 3), stride=(2, 2), padding=(1, 1
      (bn1): BatchNorm2d(512, eps=1e-05, momentum=0.1, affine=True, track_runnin
      (relu): ReLU(inplace=True)
      (router): route_func(
        (avgpool): AdaptiveAvgPool2d(output_size=1)
        (fc): Linear(in_features=512, out_features=4, bias=True)
        (sigmoid): Sigmoid()
      )
      (conv2): CondConv2d()
      (bn2): BatchNorm2d(512, eps=1e-05, momentum=0.1, affine=True, track_runnin
      (downsample): Sequential(
        (0): Conv2d(256, 512, kernel_size=(1, 1), stride=(2, 2), bias=False)
        (1): BatchNorm2d(512, eps=1e-05, momentum=0.1, affine=True, track_runnin
      )
    )
    (1): BasicBlock_cond(
      (conv1): Conv2d(512, 512, kernel_size=(3, 3), stride=(1, 1), padding=(1, 1
      (bn1): BatchNorm2d(512, eps=1e-05, momentum=0.1, affine=True, track_runnin
      (relu): ReLU(inplace=True)
      (router): route_func(
        (avgpool): AdaptiveAvgPool2d(output_size=1)
        (fc): Linear(in_features=512, out_features=4, bias=True)
        (sigmoid): Sigmoid()
      )
      (conv2): CondConv2d()
      (bn2): BatchNorm2d(512, eps=1e-05, momentum=0.1, affine=True, track_runnin
    )
  )
  (avgpool): AdaptiveAvgPool2d(output_size=(1, 1))
  (fc): Linear(in_features=512, out_features=10, bias=True)
)
/home/daniel/miniconda3/lib/python3.9/site-packages/pytorch_lightning/trainer/coner(progress_bar_refresh_rate=10)` is deprecated in v1.5 and will be removed in  `refresh_rate` directly to the Trainer's `callbacks` argument instead. Or, to d
  rank_zero_deprecation(
GPU available: True, used: True
TPU available: False, using: 0 TPU cores
IPU available: False, using: 0 IPUs
…
